hmwks/hw3/logs/rnn/version_74/checkpoints/epoch=4.ckpt (torch, 966319 bytes, 15 tensors)

exp_avg f4 [5000, 16]
000000 4f 15 5d bb d7 10 bd 37 e2 f2 ae 3a 77 64 fe 3a
       -0.0033734625 2.2538397e-05 0.0013347531 0.0019408603
000010 f3 33 cf 3a a2 24 35 3b 0c fd a3 ba 55 c2 c1 3a
       0.0015808329 0.0027640243 -0.0012511327 0.0014782647
000020 7e bd 23 3b 4f 3d b4 3a cc 40 cd b9 e8 31 3a bb
       0.0024984772 0.0013751182 -0.00039148924 -0.0028411094
000030 5f 44 06 3b 0f 79 9b ba 54 67 af b9 f2 e8 84 3a
       0.002048753 -0.001186164 -0.00033455587 0.0010140224
000040 a7 8c fd b7 bd f6 f9 b7 ef 14 d1 b7 91 c1 90 b8
       -3.0225447e-05 -2.979801e-05 -2.492449e-05 -6.9025096e-05
000050 91 7c 97 37 53 f9 3a b7 b3 43 06 38 7c 08 9b b8
       1.8058608e-05 -1.1144514e-05 3.201114e-05 -7.392556e-05
000060 1c ab a8 38 dd ed e2 b8 4c 6e 9e 37 2f 7f 23 38
       8.042736e-05 -0.00010820825 1.8886429e-05 3.8980677e-05
000070 75 0a 9e b8 da 6c de 36 7a a6 48 b8 b1 56 d4 38
       -7.535975e-05 6.6287876e-06 -4.783876e-05 0.00010125095
000080 00 9d 2f b9 8b 3c c7 b9 3d 6c 83 b9 ad 69 54 39
       -0.00016747788 -0.00038001346 -0.0002506691 0.00020257263
000090 b0 5f e1 b9 89 77 8b 39 33 12 9b b8 0a 7c a2 b7
       -0.00042986637 0.00026601207 -7.394366e-05 -1.9369665e-05
0000a0 d8 97 9d b7 74 91 24 b9 96 5f 42 ba 6e 52 60 b9
       -1.8786566e-05 -0.00015694444 -0.0007414756 -0.00021393012
0000b0 72 1f 9e 39 d8 c5 41 39 da 5d 2f ba 38 08 4d b9
       0.00030159537 0.00018479617 -0.0006689705 -0.00019553385
0000c0 3e 1d 9a 39 8f c0 c7 39 11 e8 08 39 2a e7 ea 39
       0.00029394956 0.00038099705 0.00013056422 0.0004480419
0000d0 02 2f e8 b8 da 1b a6 b8 b8 be 3b b9 a1 15 01 3a
       -0.00011071378 -7.9206846e-05 -0.00017904758 0.00049241824
0000e0 29 68 36 ba 82 b3 49 3a b0 b6 90 38 bd b6 35 b8
       -0.000695827 0.000769429 6.900483e-05 -4.332395e-05
0000f0 8c 0d cb 39 e5 5a 80 b8 2b 89 07 3a 0e 34 43 ba
       0.0003872927 -6.120446e-05 0.0005170281 -0.00074464164
000100 07 c6 8d b9 3a 80 79 b9 ae 0b c8 b8 99 2c 55 39
       -0.00027041158 -0.00023794259 -9.538919e-05 0.00020329877
000110 90 98 41 b9 2f e0 99 39 4a 00 cf b8 6c b1 39 38
       -0.00018462748 0.00029349464 -9.870583e-05 4.4272674e-05
000120 cc aa 01 39 9d cf 59 b8 52 5e f6 b9 ad f0 87 b9
       0.00012366025 -5.1930187e-05 -0.0004699105 -0.00025928524
000130 fc 8a 8c 39 6d 84 72 38 da ab e4 b9 fb 0e 58 b8
       0.00026806432 5.7820627e-05 -0.00043615588 -5.1512365e-05
000140 ad 45 12 b8 b4 ca 5d b8 79 92 1f b8 a7 c6 24 b6
       -3.4874003e-05 -5.2879288e-05 -3.8044967e-05 -2.4553535e-06
000150 02 47 27 b8 22 9a e4 37 ba b0 68 36 51 3e 00 b8
       -3.9882034e-05 2.7251492e-05 3.4673562e-06 -3.0575615e-05
000160 1b 46 04 38 c3 10 7b b8 87 21 9d b8 f7 3c 12 b7
       3.1536543e-05 -5.9858674e-05 -7.492588e-05 -8.716473e-06
000170 b1 e1 99 36 9b 02 ba 37 5a 03 c5 b8 d2 1e a1 37
       4.5860293e-06 2.2174141e-05 -9.394316e-05 1.9207047e-05
000180 af 3a b1 b9 83 89 56 b9 4f 5f a4 b7 dd f5 71 39
       -0.00033803793 -0.00020459857 -1.9594705e-05 0.00023075142
000190 da 41 b9 b8 54 c0 b4 39 68 8a 04 b9 14 b4 be 38
       -8.833753e-05 0.0003447557 -0.00012640061 9.093448e-05
0001a0 5f ce 51 39 a6 13 1b 37 87 ca d2 b9 d9 b1 ad b9
       0.00020008672 9.243295e-06 -0.00040205216 -0.00033129638
0001b0 c1 7e 9c 39 ee ae 8c 36 a5 2d c2 b9 88 75 25 b5
       0.00029849078 4.1926896e-06 -0.0003703657 -6.163832e-07
0001c0 88 d0 c4 b8 16 4d b2 b5 f7 0c 28 38 be 39 64 38
       -9.38485e-05 -1.3284468e-06 4.0066396e-05 5.4413213e-05
0001d0 fb 19 40 38 71 94 a6 38 9f 0b 17 b8 58 91 34 38
       4.5800563e-05 7.943146e-05 -3.601203e-05 4.3050706e-05
0001e0 9b c3 95 38 a1 00 2a 38 92 80 4b b7 ea 02 b1 b8
       7.141308e-05 4.0531744e-05 -1.2129678e-05 -8.4405605e-05
0001f0 cd ed 7b 38 3c a1 0d b8 cc 74 1c b7 5c 92 ef 37
       6.0064533e-05 -3.376718e-05 -9.3255185e-06 2.8559174e-05
000200 67 3f 1b 39 b0 bb b2 b8 9a 57 2b b9 b8 12 92 b7
       0.00014805571 -8.522661e-05 -0.00016340465 -1.7413273e-05
000210 c0 af 7a b9 eb 32 b6 b8 51 96 2b 38 a3 40 90 b8
       -0.0002390733 -8.6879205e-05 4.090957e-05 -6.8784946e-05
000220 b8 c9 4d b9 74 b6 c2 b8 c8 07 52 b9 a4 52 f9 38
       -0.0001962547 -9.2846254e-05 -0.0002003006 0.00011888638
000230 3e b7 4f b7 b8 66 01 39 2c bd 29 b9 51 79 2b b9
       -1.2380826e-05 0.00012340664 -0.00016187568 -0.00016353025
000240 dd 8c 76 b6 1b 60 82 39 83 2d 27 b8 91 bf fa 38
       -3.673885e-06 0.00024867136 -3.985829e-05 0.00011956611
000250 00 02 de b3 18 3d c2 b8 3c 81 9e b7 c6 28 ad 38
       -1.03380444e-07 -9.2620205e-05 -1.8895247e-05 8.2568775e-05
000260 28 28 4c b9 fa c2 19 39 fb 8d 36 39 1f 53 4b 39
       -0.00019469915 0.00014663851 0.00017409764 0.00019390554
000270 8b ce fb b7 91 b7 41 b8 46 13 62 39 06 25 17 b9
       -3.001771e-05 -4.6185745e-05 0.0002156022 -0.00014414274
000280 b0 62 0e 37 04 9e 83 3a 6a c1 fb b8 4e a8 5b 3a
       8.486837e-06 0.0010041599 -0.00012004639 0.00083792664
000290 a8 0c 3c b9 0d 81 5e b9 5e 0b 7b b9 60 b9 26 3a
       -0.00017933792 -0.00021219645 -0.0002394146 0.00063600205
0002a0 34 76 8c ba a2 3b 81 3a 8b 55 d1 39 51 c0 09 3a
       -0.001071638 0.0009859691 0.0003992732 0.00052547926
0002b0 4a 52 99 39 6b eb 34 b9 51 f9 5e 3a 5b fd 85 ba
       0.00029243744 -0.00017253838 0.0008505779 -0.00102226
0002c0 65 c6 0d 38 38 89 61 b7 06 43 d1 b7 06 c8 92 37
       3.380179e-05 -1.3442994e-05 -2.4945952e-05 1.74977e-05
0002d0 99 36 5f b8 aa 6f 16 b7 99 fe 19 b6 88 64 fc 36
       -5.321819e-05 -8.9666955e-06 -2.2946972e-06 7.5218886e-06
0002e0 13 03 6f b8 76 e4 35 37 65 33 57 b8 6a 3f d8 36
       -5.6984903e-05 1.0841633e-05 -5.130786e-05 6.444684e-06
0002f0 94 e8 bd 37 9c fe c0 37 f8 d1 d1 b7 8e d8 78 b8
       2.2638858e-05 2.3006745e-05 -2.5012516e-05 -5.932949e-05
000300 ed b4 4d b8 5c 47 05 38 18 90 63 b8 d8 3e ca 37
       -4.904431e-05 3.177613e-05 -5.4255215e-05 2.410954e-05
000310 9c 4d ef b7 b6 91 c3 b6 28 3b 6d 36 d6 05 92 b7
       -2.852716e-05 -5.828416e-06 3.5350185e-06 -1.7407274e-05
000320 ab 0a 4f b7 59 3c 05 b8 c0 19 0b b6 cc 7e 8d 38
       -1.2340645e-05 -3.1765874e-05 -2.0727603e-06 6.747022e-05
000330 c2 35 ce b7 e4 3a 64 36 6c d4 c9 b7 87 c0 19 b6
       -2.4582147e-05 3.4008926e-06 -2.4059984e-05 -2.2910842e-06
000340 55 d5 b1 b6 fd 93 6c 36 9c 02 be 36 38 8b 0b 37
       -5.299846e-06 3.525288e-06 5.662745e-06 8.31746e-06
000350 ef 8a 88 36 9c 9b c9 36 c6 ae 9d b6 7b c5 09 37
       4.06929e-06 6.008382e-06 -4.699311e-06 8.211816e-06
000360 20 58 3a 35 62 ee 33 37 30 9f 40 35 68 75 08 b7
       6.941864e-07 1.0724734e-05 7.175722e-07 -8.1335675e-06
000370 4a 0c 0d 37 e7 85 80 b6 23 22 a4 36 24 a1 67 b6
       8.407116e-06 -3.8302856e-06 4.891555e-06 -3.4515479e-06
000380 dc ca db 38 1c a9 7a 38 f0 30 23 37 0d 61 dc 38
       0.00010480519 5.976214e-05 9.726951e-06 0.000105084946
000390 c5 1f 99 b8 dc db da b7 96 e5 23 b8 1d 29 e9 38
       -7.301526e-05 -2.6090005e-05 -3.9076047e-05 0.00011117964
0003a0 51 75 52 b9 bb 84 36 39 06 cd 1b b8 e5 e4 44 b7
       -0.00020070864 0.00017406319 -3.7145823e-05 -1.1735804e-05
0003b0 76 67 dd 38 af f6 35 37 e7 15 b3 38 49 4f 60 b9
       0.00010557372 1.0845876e-05 8.539465e-05 -0.0002139184
0003c0 62 d2 04 b9 33 7b 89 b8 2a 2c 00 b6 5f 04 b1 38
       -0.00012666875 -6.555617e-05 -1.9099193e-06 8.440832e-05
0003d0 b8 0e bb b7 4f 7e 02 39 b4 c8 43 b8 b1 83 15 38
       -2.2298991e-05 0.0001244482 -4.6678542e-05 3.5647015e-05
0003e0 14 d8 9f 38 e3 d8 07 37 42 fe 0a b9 d4 c9 f8 b8
       7.6219585e-05 8.097125e-06 -0.00013255424 -0.00011863155
0003f0 18 5f dd 38 b8 32 83 b6 26 b3 00 b9 56 ed 99 36
       0.00010555814 -3.9100087e-06 -0.00012273769 4.587385e-06

exp_avg_sq f4 [5000, 16]
000000 ff 98 14 38 8d ba 05 35 93 e2 09 37 9d 1b 52 37
       3.542844e-05 4.981783e-07 8.21859e-06 1.2523405e-05
000010 fb 41 d8 36 8f 74 88 37 95 f6 30 36 54 be 83 36
       6.444983e-06 1.626674e-05 2.6369573e-06 3.9262613e-06
000020 21 6b c7 37 48 39 9e 36 ea eb 89 33 64 0e 8e 37
       2.3772534e-05 4.7154354e-06 6.422472e-08 1.693442e-05
000030 e0 b9 f0 36 38 15 43 36 8c 3b 52 33 e1 7b ba 36
       7.174196e-06 2.9069615e-06 4.8948593e-08 5.5576534e-06
000040 5d 16 24 31 2e 4c 9a 30 ce 7e 27 30 9a 8f 11 31
       2.3877853e-09 1.1226626e-09 6.0934446e-10 2.1181905e-09
000050 b9 ad 42 2f 40 95 19 2f 00 88 64 30 b7 2b 8e 31
       1.7705916e-10 1.3968293e-10 8.3139184e-10 4.1377137e-09
000060 db ed a3 31 5a 4a fe 31 6c 70 d2 30 8b 47 6e 31
       4.7709654e-09 7.4008257e-09 1.5311463e-09 3.4674226e-09
000070 c1 c5 a3 31 55 67 61 2e ec 16 c3 30 b3 14 f8 31
       4.7664064e-09 5.1250854e-11 1.4194632e-09 7.220103e-09
000080 78 e9 88 34 99 56 29 33 5c 03 cb 33 37 be f6 33
       2.5501845e-07 3.942714e-08 9.453535e-08 1.14898675e-07
000090 05 f2 d2 33 74 3d 11 34 ed 50 c9 32 5a 52 1f 33
       9.82291e-08 1.3526534e-07 2.343628e-08 3.709497e-08
0000a0 e7 8a 38 34 44 c5 60 33 02 ce f3 33 23 35 1c 34
       1.7186868e-07 5.2333476e-08 1.1353042e-07 1.4547963e-07
0000b0 d0 11 ad 33 5e 4a 04 33 fd 49 c4 33 5a f9 57 33
       8.05918e-08 3.080128e-08 9.1404196e-08 5.0285372e-08
0000c0 24 00 48 33 83 08 1e 34 a3 85 8f 32 9e 33 06 34
       4.6566257e-08 1.4717993e-07 1.6708162e-08 1.2498501e-07
0000d0 5d 60 0d 32 6a a5 11 32 30 a9 b0 32 99 1f 0c 34
       8.229191e-09 8.477722e-09 2.0566034e-08 1.3050011e-07
0000e0 52 07 81 34 16 ac 92 34 e2 f7 29 33 d0 e9 d7 33
       2.403345e-07 2.7319828e-07 3.9573827e-08 1.0054248e-07
0000f0 0c 4d e5 33 68 9f a8 31 5c 79 09 34 68 00 8c 34
       1.0677658e-07 4.907566e-09 1.280327e-07 2.6077328e-07
000100 de 75 97 33 83 e6 a2 32 62 ce 40 31 90 44 1d 33
       7.052925e-08 1.8964107e-08 2.8056992e-09 3.661677e-08
000110 de 73 8a 32 38 c0 58 33 8f d2 96 31 d8 f8 81 31
       1.6118005e-08 5.046624e-08 4.3895123e-09 3.7826844e-09
000120 a6 e4 b3 32 b1 b0 5a 31 5f 2e c1 33 dc 77 2a 33
       2.094232e-08 3.1823613e-09 8.995698e-08 3.969022e-08
000130 1b 4b 24 33 7d 9b ef 30 5b 32 9e 33 18 15 87 31
       3.8252534e-08 1.7433731e-09 7.366608e-08 3.931415e-09
000140 72 7a 5c 32 9e 4d ff 30 65 75 f9 30 a0 9b d8 31
       1.2833526e-08 1.8575752e-09 1.81505e-09 6.30412e-09
000150 b7 fe 83 31 04 40 33 31 0b bc da 30 45 33 1d 32
       3.8415595e-09 2.6084317e-09 1.5915033e-09 9.15026e-09
000160 d9 17 d2 32 1a 83 96 32 a9 b5 7f 31 3e 32 55 31
       2.4458062e-08 1.7521916e-08 3.7210646e-09 3.1024139e-09
000170 5f ee 17 32 e4 2a 5d 30 2e c1 ec 31 17 b4 ce 32
       8.843556e-09 8.0460283e-10 6.890466e-09 2.4063452e-08
000180 b3 68 43 33 01 e7 56 32 d9 ad 65 2f 87 83 a4 32
       4.54972e-08 1.2508964e-08 2.0889192e-10 1.9151924e-08
000190 0e 4a 6f 31 79 f6 1c 33 7f 89 8d 31 9d 29 8b 31
       3.4821173e-09 3.6545746e-08 4.1192716e-09 4.0501633e-09
0001a0 02 f7 a6 32 2f 02 80 31 ed 3a 4f 33 b8 36 08 33
       1.943727e-08 3.7255385e-09 4.8249536e-08 3.1714734e-08
0001b0 d8 4a e0 32 f9 49 49 2f ac 5c 3e 33 4d 31 89 31
       2.6111067e-08 1.8307124e-10 4.4322107e-08 3.9928296e-09
0001c0 39 e0 19 33 58 6b 2a 32 47 ec f7 32 e5 a0 25 32
       3.5827018e-08 9.9197095e-09 2.8862031e-08 9.640847e-09
0001d0 3c 32 21 33 fa a2 47 32 70 d7 57 31 f8 9b d4 31
       3.753142e-08 1.1620381e-08 3.140908e-09 6.1877437e-09
0001e0 9f c1 3f 33 24 dd 3f 32 e1 18 a7 32 3f 25 88 32
       4.464675e-08 1.1167945e-08 1.9452672e-08 1.5849421e-08
0001f0 f1 1b 50 31 e6 08 38 32 7f 8f 73 32 6e 1a c7 32
       3.0283867e-09 1.0712233e-08 1.4177089e-08 2.3178668e-08
000200 79 93 1d 33 0c 1a 52 32 82 ac fd 32 45 da 0d 32
       3.6688537e-08 1.2229531e-08 2.9531524e-08 8.256909e-09
000210 84 7d 48 33 5d 89 36 32 48 00 69 31 45 f3 0e 32
       4.6680285e-08 1.0625027e-08 3.3906122e-09 8.320801e-09
000220 ab b6 45 33 36 29 82 32 dd 97 f5 32 f4 1e 7e 32
       4.6033772e-08 1.5152732e-08 2.8590813e-08 1.4791784e-08
000230 27 ba 60 31 ce 7f 6b 32 25 90 b6 32 81 d1 ea 32
       3.2702105e-09 1.370786e-08 2.1253138e-08 2.7336457e-08
000240 16 b1 0a 33 5d f1 2f 34 93 17 22 32 b0 24 63 33
       3.2291688e-08 1.6385953e-07 9.435001e-09 5.2885923e-08
000250 7c 61 84 32 e8 91 da 31 f9 55 e2 30 2f 09 80 32
       1.5411153e-08 6.3612227e-09 1.6468099e-09 1.4905337e-08
000260 ae 08 0f 33 94 70 31 33 19 ae bd 33 e6 1d 8f 33
       3.3302676e-08 4.1313413e-08 8.8326665e-08 6.664395e-08
000270 90 18 1e 31 3c cd 83 32 78 80 d1 33 03 64 83 32
       2.3005988e-09 1.5343737e-08 9.755689e-08 1.5295887e-08
000280 63 1a 24 34 1b 9d 4f 35 6a c6 b1 33 74 50 b3 34
       1.528329e-07 7.734213e-07 8.278296e-08 3.3399886e-07
000290 34 10 ca 32 5d a5 1c 33 f1 d6 5f 32 92 15 d1 33
       2.3523263e-08 3.6471977e-08 1.302918e-08 9.7362445e-08
0002a0 5d 0c cd 34 cb 63 67 34 14 c2 60 34 a9 43 1e 35
       3.819322e-07 2.1549856e-07 2.0932231e-07 5.8958045e-07
0002b0 cb 1b 59 33 5e 80 a5 32 a9 2b 93 34 de 07 8f 34
       5.0549527e-08 1.9266903e-08 2.741265e-07 2.664155e-07
0002c0 f0 16 74 31 ea c6 50 30 ef b9 8c 30 a7 6e 37 31
       3.5519712e-09 7.5952633e-10 1.0239186e-09 2.6692903e-09
0002d0 09 f1 f4 30 6a 73 05 30 e0 d2 5c 30 c0 a9 99 31
       1.7821843e-09 4.854913e-10 8.0335205e-10 4.4721844e-09
0002e0 bf 7f 26 32 c5 c5 0b 32 89 4a c8 30 89 9b bb 30
       9.691518e-09 8.1358325e-09 1.4573099e-09 1.3650246e-09
0002f0 d8 76 91 31 73 32 e0 2f 6b f3 21 31 14 76 34 32
       4.2335664e-09 4.078121e-10 2.356695e-09 1.0504227e-08
000300 cc 7b d9 31 1d 8a 2c 31 c5 58 9d 30 fb 92 01 32
       6.3296053e-09 2.5107803e-09 1.1448483e-09 7.542208e-09
000310 32 ee d8 30 6d 18 d1 2f 55 56 d0 30 98 8a 13 32
       1.5783768e-09 3.8034234e-10 1.5158529e-09 8.588039e-09
000320 ff 6b 6a 32 ec b6 8c 32 62 6e fc 30 cb ec 34 31
       1.3645148e-08 1.6381328e-08 1.8366786e-09 2.6328049e-09
000330 93 26 15 32 43 52 c0 2f 26 f2 88 31 f5 1c 97 32
       8.681712e-09 3.4983047e-10 3.98565e-09 1.7591882e-08
000340 9e 22 d7 30 4a ad 00 30 3f 29 b6 30 49 4f e3 2f
       1.5653148e-09 4.681239e-10 1.3253966e-09 4.1347395e-10
000350 d3 c4 0b 31 4e 5e 25 30 ab a2 59 2f 82 cf 03 30
       2.0339044e-09 6.0160665e-10 1.9793826e-10 4.795241e-10
000360 e3 ff e5 30 81 70 62 30 94 4f 93 30 62 fa 7a 30
       1.673467e-09 8.23782e-10 1.0718275e-09 9.1305286e-10
000370 31 b5 65 2f 7d 97 32 30 d4 81 82 30 da 26 5b 30
       2.0891801e-10 6.49713e-10 9.495644e-10 7.972695e-10
000380 7c 3c 25 33 fe e9 e9 32 21 44 63 33 b3 5b d4 32
       3.8472066e-08 2.7231177e-08 5.291452e-08 2.4721748e-08
000390 77 19 8a 33 62 74 65 32 26 6b 13 32 23 ff f3 32
       6.430758e-08 1.3356017e-08 8.580889e-09 2.8404946e-08
0003a0 57 45 5e 33 18 0b 6c 33 24 a5 22 33 28 07 e4 32
       5.1751467e-08 5.495812e-08 3.786876e-08 2.6545948e-08
0003b0 0e b7 7e 32 ee 9a b1 32 22 16 57 33 97 e2 0d 33
       1.4826368e-08 2.0675966e-08 5.0078718e-08 3.3035203e-08
0003c0 31 cd 1a 33 14 fc b6 31 a8 ac 63 32 ea 2b 7c 32
       3.604254e-08 5.325555e-09 1.32523965e-08 1.46783155e-08
0003d0 88 d2 68 32 40 1d 98 32 bd 53 48 31 1d 2e 9c 31
       1.3552047e-08 1.770843e-08 2.915143e-09 4.54544e-09
0003e0 ed 26 dd 32 3e 03 e5 31 9b 4d 68 32 a1 28 9f 32
       2.5745488e-08 6.6651458e-09 1.3521823e-08 1.8528512e-08
0003f0 41 a4 1e 32 e9 a3 90 31 c3 31 4b 32 79 de 05 32
       9.234157e-09 4.209586e-09 1.182747e-08 7.792203e-09

exp_avg f4 [4, 16]
000000 82 63 cf bb ae aa 67 3c 0f bc 8e 3a 50 8c 1b 3c
       -0.006329001 0.014139814 0.0010889786 0.009493902
000010 fe d5 77 bb c7 0d c6 38 cb 8e 2d 3b 7a 91 ed 3a
       -0.0037816758 9.443942e-05 0.0026482816 0.001812502
000020 42 78 21 bb 1f 0a 92 3b d4 98 12 3b a5 ef 11 3c
       -0.002463833 0.004456773 0.0022368925 0.008907233
000030 62 09 39 bb 8d 95 76 ba cc d8 c6 3b 0e 72 80 bb
       -0.0028234352 -0.000940644 0.0060683247 -0.0039198464
000040 1c 10 50 b9 f0 17 89 3a 87 e9 9b 3b f7 8c af 3b
       -0.00019842427 0.0010459404 0.0047580632 0.0053573805
000050 d2 1b 4e ba 6a 8e 94 ba db 4d 53 ba a2 ee d3 ba
       -0.0007862422 -0.0011333947 -0.00080606126 -0.001616914
000060 4d d5 09 3b e9 83 81 ba 8a 56 05 ba 75 ed aa 3a
       0.0021031678 -0.0009881231 -0.00050864427 0.0013040738
000070 00 a6 4c 35 6c 60 8c 3a 8a 31 ef 39 1e f2 7a b8
       7.6237484e-07 0.0010709888 0.00045622542 -5.9830134e-05
000080 12 9a b1 bb 62 c4 9b bb 06 e8 81 3b d9 96 17 3b
       -0.005419978 -0.0047536353 0.003964427 0.0023130684
000090 0e 81 31 bb b4 22 d8 3b 78 45 23 3b 6e 02 21 ba
       -0.002708498 0.006595934 0.0024913233 -0.00061420246
0000a0 93 c9 c6 3b 27 2c 90 bb 5a 02 b8 bb 4e 7b 92 bb
       0.00606651 -0.0043997946 -0.0056155147 -0.0044702655
0000b0 e5 e4 61 3b 4f 89 2c 3b 3c dc 50 bc 39 cf 1d 3b
       0.0034468707 0.002632696 -0.0127478205 0.0024079813
0000c0 4a f9 53 ba a7 6f bf 3b f7 ca 49 bb 1e 4b 6c 3b
       -0.0008086158 0.0058421674 -0.0030791142 0.0036055516
0000d0 27 82 3c ba 7a ae 10 bb b5 2b 87 ba af 6e f7 39
       -0.0007191025 -0.0022076652 -0.0010312708 0.00047193977
0000e0 13 83 23 bb 21 c9 e0 3a 9a cc aa 3b 32 1f dd 3b
       -0.0024949952 0.0017149785 0.0052123787 0.0067481035
0000f0 a5 8c 6e bb ee cf d5 3a 92 61 44 3a 6c 59 87 bb
       -0.0036399749 0.0016312578 0.0007491346 -0.004130533

exp_avg_sq f4 [4, 16]
000000 0a f1 53 37 e2 c1 a2 38 ed 0f 26 38 01 4e 90 38
       1.2632701e-05 7.7608755e-05 3.9592316e-05 6.8809844e-05
000010 45 b2 64 37 df 12 64 36 92 39 b6 36 78 da 40 36
       1.3631366e-05 3.3985632e-06 5.4307247e-06 2.8737395e-06
000020 1b 40 cf 36 19 3c 51 36 90 5c 0a 36 78 d2 1c 38
       6.1765436e-06 3.1178408e-06 2.061748e-06 3.7389313e-05
000030 fa bc ba 36 1f ca 8e 36 7d 27 01 37 54 90 6a 36
       5.5652317e-06 4.2554598e-06 7.698193e-06 3.4952727e-06
000040 90 e1 1e 36 df b1 77 37 c9 b6 2f 38 5c 96 cd 37
       2.367513e-06 1.4763761e-05 4.1893483e-05 2.450792e-05
000050 bc aa d5 36 c2 00 92 36 77 3f 63 36 28 40 b3 37
       6.3677708e-06 4.3512273e-06 3.3862577e-06 2.1368338e-05
000060 f4 b8 5f 37 40 56 df 36 d1 7f ca 36 bf 0d 98 37
       1.33348985e-05 6.6559587e-06 6.034949e-06 1.8126213e-05
000070 8d 27 7b 37 ec 61 05 37 13 0c bf 36 a8 e0 fe 36
       1.49699745e-05 7.950217e-06 5.693649e-06 7.5959433e-06
000080 92 5e 98 37 99 26 45 37 8f e5 f7 36 9a b6 98 36
       1.816385e-05 1.1751102e-05 7.3878978e-06 4.5512106e-06
000090 86 4e 38 37 6d 88 c3 37 50 16 19 37 bf 03 d0 36
       1.0985537e-05 2.330934e-05 9.124706e-06 6.199319e-06
0000a0 5d e4 da 37 f7 a8 f0 36 ad 26 e5 37 82 99 7a 37
       2.6093965e-05 7.1722275e-06 2.7316937e-05 1.49369025e-05
0000b0 52 d3 7a 37 ee 81 b6 36 c9 04 2c 38 fe 56 66 37
       1.4950363e-05 5.4391485e-06 4.1012452e-05 1.3729323e-05
0000c0 58 fc 95 36 ae 26 8d 37 68 27 8a 36 90 20 03 37
       4.4699227e-06 1.6826521e-05 4.117308e-06 7.81579e-06
0000d0 0a af 84 36 f4 6a 81 36 36 05 39 36 db 59 4c 36
       3.954284e-06 3.8569506e-06 2.7570181e-06 3.0450672e-06
0000e0 cf 2c 94 36 00 ae 78 36 91 9f c8 36 32 2e f1 36
       4.41596e-06 3.705616e-06 5.9790405e-06 7.1877375e-06
0000f0 48 ac 84 36 83 ee 23 36 11 00 51 36 ce 3d 82 36
       3.9539627e-06 2.4427725e-06 3.1143466e-06 3.881497e-06

exp_avg f4 [4, 1]
000000 bf 96 30 38 06 ed 80 3b 68 dd 19 bb 1d 2b 24 3b
       4.2102063e-05 0.0039345054 -0.0023477916 0.0025050112

exp_avg_sq f4 [4, 1]
000000 13 27 83 36 3b e4 27 38 33 35 b0 35 52 1d 11 37
       3.908653e-06 4.002846e-05 1.3128505e-06 8.6495e-06

exp_avg f4 [4]
000000 82 00 8a 3b 6e 83 2d bb 54 da be 3c 07 26 b7 bb
       0.0042114863 -0.0026476043 0.023297466 -0.00558925

exp_avg_sq f4 [4]
000000 05 60 05 38 a6 cb d9 38 b8 e8 35 39 ea 04 42 38
       3.1799096e-05 0.00010385299 0.000173482 4.625778e-05

exp_avg f4 [4]
000000 80 00 8a 3b 70 83 2d bb 52 da be 3c 07 26 b7 bb
       0.0042114854 -0.0026476048 0.023297463 -0.00558925

exp_avg_sq f4 [4]
000000 02 60 05 38 ab cb d9 38 b6 e8 35 39 ec 04 42 38
       3.1799085e-05 0.000103853024 0.00017348197 4.625779e-05

embedding.weight f4 [5000, 16]
000000 7d 1f 23 3d 40 8b 96 3f eb eb 09 40 7a 31 f0 3f
       0.03982495 1.1761246 2.1550243 1.8765099
000010 bb 8d 16 bf 83 c2 1b bf c8 04 57 3e 00 db 39 bf
       -0.58810014 -0.60843676 0.20997918 -0.7259979
000020 a3 a7 7e 3f 5c 05 02 bf 8d 3a 53 be fa 1d 99 3f
       0.99474543 -0.5078943 -0.20627804 1.1962273
000030 9f a1 2a bf 5d 39 1b 3f e7 7d 26 3e 61 43 1a 3f
       -0.66652864 0.60634404 0.16258965 0.6025906
000040 1f a8 99 bf bf 9f bf be 03 6c 1c 40 ac 08 95 3f
       -1.2004431 -0.37426564 2.4440925 1.1643271
000050 01 e1 b4 3f e2 90 97 3f ec 99 31 3e 58 91 b9 bf
       1.4131166 1.184109 0.17343873 -1.449748
000060 d0 b3 77 3f 20 ab a3 be 2f 85 d5 bf 68 ae 3f bf
       0.9675875 -0.31966496 -1.668127 -0.748755
000070 18 39 ac 3f 62 fa c3 bc 73 91 69 bf 90 9a af 3e
       1.3454924 -0.023923103 -0.9123756 0.3429761
000080 f5 09 56 bf ca 21 43 3e 61 ac 12 bf 22 e9 e1 bf
       -0.83608943 0.19055858 -0.5729428 -1.7649271
000090 70 31 54 bf 71 69 13 3f 9c 4d af be a5 50 a1 3f
       -0.82887936 0.57582766 -0.342389 1.2602736
0000a0 1d 22 80 bf 56 58 1e 3e 09 26 75 bf 21 d5 d3 3e
       -1.001041 0.15463385 -0.9576116 0.41373542
0000b0 a3 25 25 bf 00 94 86 3e 77 fa a4 3f da 9f 97 bf
       -0.64510554 0.2628479 1.2888936 -1.1845658
0000c0 d9 a9 44 bf 69 9c 2a bf 4f 8a 0a 3f 31 92 8c be
       -0.76821667 -0.6664491 0.5411729 -0.27455285
0000d0 8f d3 d2 bd 34 ba c8 3f 67 f4 fe bd 6a 39 78 bd
       -0.10294258 1.5681825 -0.1244896 -0.06060163
0000e0 8b 7a a4 3f 3d bd f0 3e 62 20 99 be f2 73 ac bf
       1.2849897 0.47019377 -0.2990752 -1.3472884
0000f0 0b 32 8c 3f 85 07 a8 bd 45 95 42 3f 40 0f b1 3f
       1.0952772 -0.08204559 0.7600902 1.3832779
000100 dd ff a8 3e 73 1a 08 40 4d 33 a8 3f 73 15 73 bf
       0.33007708 2.1266143 1.3140656 -0.94954604
000110 84 a8 13 bf 84 70 4a 3f b4 7d a9 3f 9e 4c 8d 3f
       -0.5767901 0.79077935 1.3241487 1.1039007
000120 ab 3d f1 3d 01 de c1 3f a0 0d 84 3f 1d 32 29 3f
       0.1177934 1.5145875 1.0316658 0.6609209
000130 d9 31 a6 3f c1 4f a8 3f c6 24 70 bf 7d 97 d4 3e
       1.2983962 1.3149339 -0.9380611 0.41521826
000140 2a 24 5a 3f 1d c8 97 3f 57 38 bf 3f a0 06 8d bf
       0.8521143 1.1857945 1.4939069 -1.1017647
000150 0f d0 1b 3f 67 c0 be 3e 99 05 03 bf fc 4c b6 bf
       0.6086435 0.37256166 -0.51180416 -1.4242244
000160 0d a8 0b 3f 1f b8 b8 3f f2 d2 59 bf 74 b3 dc 3f
       0.545533 1.4431189 -0.850875 1.7242265
000170 72 c8 11 3f 7b 40 8b 3f 9e 62 c5 3f 88 42 f4 3e
       0.5694648 1.0879053 1.542072 0.4770701
000180 21 c6 2b c0 25 4f 42 3f 60 de 56 bf 61 c7 06 40
       -2.6839678 0.75902015 -0.8393307 2.1059191
000190 93 50 e0 3f 8a ba 4a 3f 4a 51 b0 be 27 0d 05 bf
       1.7524589 0.79190886 -0.3443702 -0.51973194
0001a0 16 f7 88 3d 2c 17 a0 3e f4 63 b3 3f 89 cd 91 be
       0.06687753 0.3126768 1.4014878 -0.28477123
0001b0 92 8f 38 bf db 98 c9 bf f2 4f d3 3f 2e ff 17 c0
       -0.7209407 -1.5749773 1.6508772 -2.37495
0001c0 8c 7c cb 3f e1 cd 08 40 0c 1c b7 3d c7 56 65 be
       1.5897384 2.1375659 0.089408964 -0.22396384
0001d0 6a 84 fd 3d 37 8d 21 40 c9 9c 1a bf 04 94 5b bf
       0.123787716 2.524244 -0.60395485 -0.8577273
0001e0 29 a0 f9 bf e4 ad 1b be 3b d4 b2 3f c5 b2 82 3f
       -1.9502002 -0.15203053 1.3971018 1.0210806
0001f0 b9 7f 26 bf 5f 53 be 3f 80 1a ad bf c2 60 a7 3f
       -0.6503864 1.4869193 -1.3523712 1.3076403
000200 13 ca bf 3f 6f b9 11 be d5 f2 1f bf ea fb 46 3d
       1.4983543 -0.14230894 -0.6247991 0.048580088
000210 8b aa 46 3f e3 cf 59 bd e8 07 91 be 46 c0 bf be
       0.7760398 -0.05317677 -0.28326344 -0.3745138
000220 13 5b a9 bf 1f 51 6d 3f 2d 16 8f bf 07 9a ab be
       -1.3230919 0.92701906 -1.1178643 -0.3351595
000230 2e c3 2b c0 62 91 af bf ed f3 90 3f d8 c0 04 40
       -2.6837878 -1.3716242 1.132444 2.0742702
000240 d2 51 b6 3f 3d 52 de bf d7 28 67 be bf 63 49 3f
       1.424372 -1.7368847 -0.22574173 0.78667825
000250 79 e3 84 3e 52 b2 41 3f ce 5f 23 bf e1 a2 c3 3f
       0.25954798 0.7566272 -0.6381806 1.5284082
000260 0c 5d 11 3e f2 06 b8 3f 27 49 3a be 0b 96 0e bf
       0.14195651 1.437712 -0.18191968 -0.556977
000270 7a 65 f9 bd 96 77 88 be 8c a1 ae bf a4 22 7e 3e
       -0.12177558 -0.26653737 -1.364305 0.24817902
000280 86 52 ca 3d 9e 06 da 3f bb 2d 50 be 7a c3 52 3d
       0.09879021 1.703327 -0.20329945 0.051455952
000290 6c 69 39 bf 76 0a 6a 3f 3e af b3 3f 87 d0 6d bf
       -0.72426486 0.9142221 1.4037855 -0.9289631
0002a0 54 20 db 3f d5 09 94 3f 5b 08 18 c0 1a 86 cd bf
       1.7119241 1.15655 -2.37551 -1.605655
0002b0 ec b3 96 3f 42 a4 32 bf 4c 8d 7c 3f 92 aa 38 3f
       1.1773658 -0.6978189 0.986531 0.7213527
0002c0 67 29 52 bf 01 c6 a7 3f 35 4a fd be 8b f6 44 bf
       -0.82094425 1.3107301 -0.49470678 -0.76938695
0002d0 7d ef c2 3e c2 fa 00 3f 49 b8 f6 3e 8f 8b e7 bf
       0.3807334 0.50382626 0.48187473 -1.8089465
0002e0 2c d7 d5 bf 59 e3 8d 3e e6 42 cf 3f 19 8f a6 3e
       -1.670629 0.27712515 1.6192291 0.3253105
0002f0 04 f1 6f 3f 09 0f 57 3f f7 9f e2 3f a8 64 3a 3f
       0.93727136 0.84007317 1.7705067 0.7280984
000300 6d 57 0a 40 b2 82 a2 3e 7e 44 65 bf be b4 cc 3e
       2.161586 0.31740338 -0.89557636 0.39981645
000310 7f ef fd bd 7c 06 61 3f 30 a6 4e 3f 45 4e 9e 3f
       -0.12399196 0.8790052 0.8072233 1.2367636
000320 21 5f 91 3f e3 76 4b be 10 08 76 bc 72 84 c4 bd
       1.1357156 -0.1986957 -0.015016571 -0.095955744
000330 65 f0 bd bd 34 04 8c bf 02 c2 be 3f 23 2a e0 3f
       -0.09274367 -1.0938783 1.4902956 1.7512859
000340 fb 2f 26 3f 7c 25 e7 3f 09 37 23 bf a8 c8 f7 bb
       0.6491696 1.8058314 -0.6375585 -0.007561762
000350 0e ef 0c 40 ff 11 98 bf bb 0d 5f 3e f7 28 e3 bf
       2.2020907 -1.1880492 0.21782582 -1.7746876
000360 a9 68 b0 bf fd b4 00 40 ed e9 ee be ca 5a b3 3d
       -1.378194 2.0110466 -0.46662846 0.08757551
000370 b8 cc ce 3c 59 73 27 3f f9 f4 cc 3f 0d 5e 35 bf
       0.025244102 0.6541038 1.601226 -0.70846635
000380 06 8e 1e bf 18 9f 5c 3d 76 96 05 be 56 3a 96 bf
       -0.6193546 0.05386266 -0.13045678 -1.1736553
000390 2c e7 e6 be 9c 71 95 3e 16 85 b9 3e c6 e4 55 be
       -0.45098245 0.2918824 0.3623435 -0.20888051
0003a0 51 7a 0c 40 ce be e0 3e 75 ce 38 c0 da f8 a5 bf
       2.1949656 0.43895572 -2.8876011 -1.2966568
0003b0 87 73 5a bf 83 15 b8 be aa 69 d4 bf 3e 63 63 be
       -0.8533253 -0.35953912 -1.6594746 -0.22205827
0003c0 71 d7 a3 bf ae 0f 7c 3f a1 63 f9 bf 55 92 3b bf
       -1.2800122 0.98461425 -1.9483529 -0.7327016
0003d0 da 31 22 3e d1 00 f4 bf 00 a0 86 be 66 66 86 bf
       0.1583933 -1.9062749 -0.26293945 -1.05
0003e0 f9 7a ab bf d2 9a ae bf dc 50 67 bf 2b ce 95 be
       -1.3396903 -1.3640997 -0.90357757 -0.29258856
0003f0 88 6a 67 be 6f 7e f3 bc d3 34 d2 3e ef ce d9 bd
       -0.22599232 -0.029723374 0.41055927 -0.106351726

lstm.weight_ih_l0 f4 [4, 16]
000000 3e 05 51 bf d6 f8 ff be 77 d6 25 bd 89 06 19 3f
       -0.81648624 -0.49994534 -0.040487733 0.59775597
000010 0f c6 63 be 9f 45 5c 3f c5 7d ab be 05 bc 82 3e
       -0.22243522 0.86043733 -0.33494392 0.25534073
000020 34 bc ec 3e 68 cc 70 3d d5 ac 81 bf ee c8 57 bf
       0.46237338 0.058788687 -1.0130869 -0.8429097
000030 cd 1b 47 3f e2 8e f1 3b a5 11 68 bf 08 a0 1b bd
       0.77776796 0.0073717693 -0.90651923 -0.037994415
000040 8e f1 5a bf 19 71 f6 3e 58 7e 49 3f 36 06 ba 3e
       -0.85524833 0.48133162 0.7870841 0.36332864
000050 1a c0 8a 3f b1 41 11 3f de 8f a2 be ac eb 06 3f
       1.0839875 0.5674086 -0.31750387 0.52703357
000060 c6 a7 55 3f d1 65 2e 3f 59 59 53 3f d3 d0 31 bf
       0.83459127 0.6812411 0.8255821 -0.69459265
000070 b3 18 9b 3e eb 30 21 bf 05 d7 44 3f 15 7e 12 3f
       0.30292282 -0.6296527 0.76890594 0.57223636
000080 b2 0e 9b be a5 c4 7f 3f 54 47 b7 be 56 30 1a 3f
       -0.3028465 0.9990943 -0.35796607 0.60230005
000090 eb f8 e9 bd 2f 58 89 be 42 1e d1 bd da 51 8c 3e
       -0.114244305 -0.2682509 -0.10210849 0.27406198
0000a0 d8 a8 35 bf 5f b2 e2 3e 6f e8 0a 3f 52 e4 61 3f
       -0.7096076 0.4427671 0.54260916 0.88239014
0000b0 81 4b fb bd 34 04 2d be 13 75 1f 3f e8 f2 0a bf
       -0.122702606 -0.16896135 0.62288016 -0.54276896
0000c0 f2 20 9e be f6 2e ba be b3 ef 4c be da 28 29 bf
       -0.3088451 -0.36363953 -0.20013313 -0.6607796
0000d0 5a ff 39 3e 39 a5 19 bd 32 f7 94 3e 77 d6 31 bf
       0.18163815 -0.037511084 0.29094845 -0.6946787
0000e0 96 de 55 3f 43 8b 84 bf bb aa cc 3d a7 fc 82 3e
       0.83542764 -1.0354999 0.09993502 0.25583383
0000f0 0f a3 27 bf 70 2c 7c 3d c4 42 05 bf 97 3f 7f 3f
       -0.6548318 0.061565816 -0.52055 0.99706405

lstm.weight_hh_l0 f4 [4, 1]
000000 0d f8 14 bf 51 00 58 3f 51 b3 f0 be 0c f6 f3 3c
       -0.58190995 0.8437548 -0.47011808 0.02978041

lstm.bias_ih_l0 f4 [4]
000000 65 d0 10 3d 70 b1 ea bd 46 fc c2 3d b1 59 4a bf
       0.03535499 -0.11459625 0.095207736 -0.7904311

lstm.bias_hh_l0 f4 [4]
000000 4e 82 5e bf e4 86 18 3f f8 a1 47 3f 6b 95 d5 3e
       -0.8691758 0.59580827 0.7798152 0.4171556
