hmwks/hw3/logs/rnn/version_73/checkpoints/epoch=4.ckpt (torch, 485935 bytes, 15 tensors)

exp_avg f4 [5000, 8]
00000000: 6d48 dfb8 dbf3 5ab8 ee39 9739 289d c539
00000010: 905b 52b5 3761 17ba 73aa 283a 6733 f6b9
00000020: 174f 3239 d626 89b8 a26b 6537 c2d7 3db8
00000030: 999c 97b7 1098 cfb9 f2db a139 3e75 d4b8
00000040: 10f0 f5b9 52a0 4137 cabc 1f3a 8d07 6e3a
00000050: a9e2 48b8 c756 5aba 9469 8d3a 6845 7cba
00000060: a7ba e63a d3f5 2aba 5811 42ba 24c5 00bb
00000070: 54c7 443a 7a66 4639 e19a 7aba d6dc b73a
00000080: 6df4 cc39 6cf1 5eb8 b4c5 89b9 100f d3b9
00000090: 7cf3 c9b8 d5b7 81b9 b1cb ee37 90f8 7c39
000000a0: ff39 033a a65c d3b8 49b6 65b9 9ab0 08ba
000000b0: c30b 5738 dd1c 4eb9 06cd 8ab8 bf5f 7439
000000c0: b5ab 843a 22c4 90b9 f649 44ba e085 98ba
000000d0: 9cc6 7236 156f a7b8 5783 d6b9 e7a4 893a
000000e0: 4709 1ab9 b68a e138 3d4d 9538 966a 8639
000000f0: e3b3 78b9 faf8 c8b9 43fb d739 a4af a0b9
00000100: a1b2 9a39 42ae ecb7 dc5a 17b9 bd54 8eb9
00000110: 2f40 94b8 5b35 94b9 aea5 e438 0685 8f38
00000120: 82a4 01b9 a5bd 77b9 a71a 263a 9c87 1f3a
00000130: 7267 a839 c959 54ba efb2 7a3a c704 4aba
00000140: a96b 4239 5680 29b8 6a02 0539 9083 eb33
00000150: 8076 edb4 091c 19ba ebcb f639 d192 b1b9
00000160: 70c6 1339 21e6 cbb6 d67b c3b8 c051 e6b8
00000170: d685 c6b8 4345 66b9 10f6 0839 60a2 f137
00000180: a1ef bd39 2246 17b9 e3a8 3fb9 be81 b1b9
00000190: b43f 5038 b0a3 30b9 52be 0437 ec00 9039
000001a0: c703 c2b7 80d2 b9b8 a76d 8039 835b 7939
000001b0: a285 bd38 bc47 dbb9 0bde ee39 fad4 b0b9
000001c0: 4760 c7b8 9322 2839 e0a0 9438 7f67 f939
000001d0: 35ce 26ba b9f3 b0ba 9e51 a93a b6eb 32ba
000001e0: e4bb 4f38 5043 43b7 34cd ad38 1af3 5a38
000001f0: b4bf 63b7 7cff 9bb9 fece 8939 b574 4eb9
00000200: 2d67 6e39 2603 c638 c980 eab9 1f27 f5b9
00000210: 981f 74b9 b10a 8f39 3cdb e5b9 164b 053a
00000220: 75f0 6e37 b607 40b7 b6e1 2838 de08 abb5
00000230: 669a 3c38 e4ff 6fb7 3547 2b37 8b4c 42b8
00000240: cd25 a038 b0d2 20b7 8062 a8b7 1800 91b8
00000250: cfb7 d335 427b 89b8 3ee0 b637 2a43 b934
00000260: e612 dfb7 2467 9ab6 1696 aeb7 b890 8b38
00000270: 01d6 a1b8 58b6 e7b8 b8de 0239 a015 5336
00000280: 5a88 1bb8 3820 60b6 1469 9b38 1a4c f938
00000290: b44b 03b8 f006 4eb9 ad9f 5f39 fe7b 18b9
000002a0: f01c 3638 3f2b 26b4 fa77 ea37 8204 c037
000002b0: 3dd9 34b8 f4a4 6ab9 0b71 4739 21e8 f1b8
000002c0: 97b3 44b9 fcc1 92b9 4817 703a e82d 813a
000002d0: 40b2 8a39 9e20 cdba 1f3d e43a b3cd abba
000002e0: d804 10b9 5c45 5e38 a874 da38 acd9 5b39
000002f0: 49f2 aeb8 cc22 37b9 d2ff 6e39 d6f4 68b9
00000300: edf9 7138 2f8d bd35 e113 8837 228d 66b7
00000310: 9efe d0b7 cf4b 32b9 f961 0739 918a b8b8
00000320: 5783 3fb8 e71b 68b8 4f5e 4d39 f684 3c39
00000330: c2e1 ca38 024e 6ab9 6186 8b39 6902 83b9
00000340: b5a7 4639 aed7 6eb8 4bae 09b9 d638 64b9
00000350: 48dc 8c37 fb1b 53b6 b5b3 b3b8 b062 4c39
00000360: 4454 5e37 f1c2 6e37 4e70 2ab7 351b 8236
00000370: a65a 45b8 f2af b9b8 d10b 9638 a99a 0eb8
00000380: 76db 3437 de2e 9ab7 bf02 0f39 d5a3 a538
00000390: 2cb6 7138 99c2 52b9 f8e6 4c39 32af 66b9
000003a0: 5a83 1239 40d3 abb8 b2b1 8fb8 486a e7b8
000003b0: 84ed e737 56c2 b7b8 65e5 1638 d107 0539
000003c0: af7e 9cb8 f613 7f38 dc9a 0038 a517 1239
000003d0: 8bf5 18b9 29b1 76b9 56de 8039 05b2 30b9
000003e0: f14b 0c39 85b0 52b8 92f3 4239 a373 ceb8
000003f0: 44ca 8539 2fbe 1bb8 68b6 bdb7 e85d 67b9
-0.00010646959 -5.220236e-05 0.00028844125 0.0003769186 -7.836434e-07 -0.0005774679 0.00064340903 -0.00046959074
0.00017004866 -6.539903e-05 1.3674524e-05 -4.526205e-05 -1.8073524e-05 -0.00039595412 0.00030872185 -0.00010130786
-0.00046908902 1.1541024e-05 0.00060935004 0.00090801046 -4.789481e-05 -0.0008328971 0.0010788911 -0.00096233794
0.0017603234 -0.0006521616 -0.0007403097 -0.0019648755 0.0007506509 0.00018920927 -0.0009559822 0.0014027606
0.00039092024 -5.3153766e-05 -0.00026277977 -0.0004025628 -9.6297794e-05 -0.00024741763 2.8466662e-05 0.0002412519
0.00050058955 -0.00010078521 -0.00021907048 -0.0005214304 5.127095e-05 -0.00019656443 -6.6185414e-05 0.00023305322
0.0010121973 -0.0002761195 -0.00074878277 -0.0011636578 3.6176416e-06 -7.983871e-05 -0.00040915117 0.0010501415
-0.0001469004 0.00010754673 7.1192604e-05 0.00025637884 -0.00023718136 -0.00038332475 0.000411952 -0.0003064844
0.00029506258 -2.8214537e-05 -0.0001443433 -0.00027147486 -7.069145e-05 -0.00028268513 0.000109027475 6.843549e-05
-0.00012363683 -0.00023626404 0.0006336369 0.0006085576 0.0003212053 -0.0008100537 0.00095634063 -0.00077064004
0.00018541388 -4.0412262e-05 0.00012684768 1.0966971e-07 -4.423091e-07 -0.00058406644 0.00047072707 -0.00033869458
0.00014092936 -6.076662e-06 -9.321391e-05 -0.00010982482 -9.4663046e-05 -0.00021960311 0.00013061636 2.880505e-05
0.00036227427 -0.00014426609 -0.00018278095 -0.00033856736 4.9650393e-05 -0.00016845646 7.9121255e-06 0.00027466507
-2.3128361e-05 -8.860696e-05 0.0002449576 0.00023780581 9.037113e-05 -0.0004182438 0.00045560332 -0.00033728016
-9.5069925e-05 0.00016034608 7.087155e-05 0.00047570092 -0.00063631247 -0.0013500369 0.0012918 -0.0006825285
4.9527633e-05 -1.1638578e-05 8.287505e-05 5.2201656e-05 -1.3574889e-05 -0.00029754255 0.00026284897 -0.00019689168
0.00022735885 9.441962e-05 -0.0004472791 -0.0004675919 -0.00023281423 0.0002728305 -0.00043841626 0.0005084736
1.4241891e-05 -1.1445887e-05 4.026453e-05 -1.2743074e-06 4.4966488e-05 -1.4305089e-05 1.0208973e-05 -4.632449e-05
7.6364355e-05 -9.585798e-06 -2.0073028e-05 -6.914156e-05 1.577422e-06 -6.5556276e-05 2.1800512e-05 3.4507804e-07
-2.6592472e-05 -4.601565e-06 -2.0812306e-05 6.6549925e-05 -7.7169396e-05 -0.000110489025 0.00012480735 3.1454038e-06
-3.7081867e-05 -3.3397355e-06 7.410548e-05 0.0001188742 -3.1303338e-05 -0.00019648275 0.00021326421 -0.0001454204
4.341913e-05 -1.5475688e-07 2.7950842e-05 2.2890283e-05 -4.3117663e-05 -0.00022377429 0.0001902023 -0.00011535013
-0.00018758919 -0.0002799182 0.00091587426 0.00098556 0.00026454218 -0.001564998 0.0017413235 -0.0013107568
-0.00013734715 5.299352e-05 0.00010416779 0.00020966557 -8.342096e-05 -0.00017465203 0.00022792749 -0.00022216453
5.769164e-05 1.4122687e-06 1.622172e-05 -1.3741928e-05 -2.4914098e-05 -0.00017003644 0.00012911101 -8.799614e-05
-4.566027e-05 -5.5339096e-05 0.00019585456 0.00017978609 9.674161e-05 -0.00022345039 0.00026612266 -0.00024988063
0.00018945227 -5.694449e-05 -0.00013130267 -0.00021764947 1.6791877e-05 -3.1457737e-06 -8.568858e-05 0.0001949172
1.3251851e-05 1.4231294e-05 -1.0158938e-05 3.877469e-06 -4.7052883e-05 -8.85426e-05 7.154758e-05 -3.3999477e-05
1.0779933e-05 -1.8380055e-05 0.00013638566 7.898329e-05 5.762854e-05 -0.00020099654 0.00019540999 -0.00021999775
0.00013972577 -8.193264e-05 -6.85187e-05 -0.00011034735 2.7647948e-05 -8.762318e-05 3.5976427e-05 0.0001268678
-7.462256e-05 6.0815328e-05 3.0661802e-05 0.00013932453 -0.00014587321 -0.00023526385 0.00024579716 -0.00016850985
0.00013379731 -5.02323e-05 0.00018592019 -9.8443845e-05 0.00025518436 -3.7132002e-05 -2.2615495e-05 -0.0002206486

exp_avg_sq f4 [5000, 8]
00000000: 62bf 4632 a9f7 f631 a329 b333 18b2 df33
00000010: 016f 2832 230d dd33 82fc 3834 fea7 d433
00000020: 4fb4 5431 a553 4931 2b35 4632 03ac 3c32
00000030: 81e4 7431 0a16 1c33 7550 2433 69e6 4932
00000040: 822d 9933 8b93 3f32 0f23 6c34 2734 b834
00000050: 8d4f 8732 4ffb 7a34 1a14 f034 49b5 a534
00000060: abaa 5c35 7f5f 4f34 99ad 2d34 531f 5835
00000070: e8d4 1434 2ab6 ce32 c272 0a34 bda5 2b35
00000080: b671 1033 67c0 b530 1d0e 9c32 c0b4 1033
00000090: ef24 c131 c716 a532 ec64 fc30 da33 8f32
000000a0: 758f bb33 97ba eb31 2dd8 ea32 f041 c333
000000b0: 8567 c431 ab01 8f32 3580 6e31 22a3 2833
000000c0: 9342 2934 ae79 0133 5e58 bb33 6a1f 5734
000000d0: e70e 4332 52fc 8732 a90c 9533 d4cf 8a34
000000e0: 0b6b 6532 5af0 b331 1500 4231 b2e2 d832
000000f0: 1d93 9932 5906 1633 515a 4c33 34fa 0333
00000100: f44a 5b32 6631 2930 19f3 e631 2cde 2f32
00000110: ebcd 1432 29db 4632 2134 3831 3e32 c531
00000120: c6ac 1132 b0b5 9e32 30f8 e233 6ff4 e133
00000130: ecd5 e932 fd46 0b34 b11b 5734 592b e833
00000140: 63b7 fd31 bd7b b132 fb25 7934 8b23 0d34
00000150: e827 8033 2b39 5a34 65de 9834 3511 9034
00000160: dc99 3431 bcf7 f22e d3f9 cb30 af68 da30
00000170: ee3c 2931 8da9 1532 a96f a231 6d86 0e31
00000180: 30eb 0333 fb42 d931 485e 4e32 5769 d232
00000190: b4c6 1432 8799 4232 e582 8930 73f2 9b32
000001a0: 78b9 a932 fe2b be32 21c4 2d34 39ca 3934
000001b0: 03dd 0f33 b352 4334 e0e7 9c34 2eb3 3534
000001c0: f91c ff32 3cf7 8a31 66c8 a432 95d6 8833
000001d0: d207 8933 0846 9734 3ae3 8834 2e63 aa33
000001e0: 180d 9431 4355 1130 aff2 8232 aa0e 8132
000001f0: a6e6 ea31 6441 0d33 97b7 2833 adf0 0733
00000200: 36d6 0933 1546 c732 6ef7 c633 c486 c233
00000210: ad31 1633 29ed f133 8823 1a34 9d8d b233
00000220: 7ba7 9630 a668 e12f 45b3 6231 01f5 7630
00000230: dafc a131 5bba b82f c472 3330 1132 7031
00000240: 55e9 7331 28b1 632f f37d 5931 b45f 4b31
00000250: c1e1 7731 fe5a 4131 fa52 2330 d9c9 5a31
00000260: 45ec a731 67d1 ce31 df6b 5333 f241 f032
00000270: c328 eb32 8528 2733 c578 6f33 ee7e 6733
00000280: 8679 e831 b12f 652f af82 1732 c907 a432
00000290: fbad 7630 d457 ce32 f64b 0933 99ce aa32
000002a0: 7cd9 1731 07ff 742f c9f4 cc31 6cc7 9d31
000002b0: e548 7431 8692 7b32 28c2 7932 4f9c 6332
000002c0: d7e8 8033 a4c8 d933 c7e8 c734 ffa0 c234
000002d0: 4dde c133 0849 4135 fa87 7535 b004 d134
000002e0: 0bc5 6632 074f 0b31 5ecb f731 2239 e532
000002f0: 693e 8e31 abd8 7d32 7261 fd32 79c8 e432
00000300: 36d1 8531 8ae3 b92f afa5 af31 d03f b131
00000310: a5ce e530 4be2 ce31 843e b331 7d69 2f32
00000320: d0d5 d030 874a 8531 256a cf32 31a2 9932
00000330: a794 e531 0498 e432 2a5a 2333 c086 d032
00000340: a85a b732 7b58 9731 29b6 3032 ce6c e232
00000350: 50e4 1e32 855e 6131 b016 3f32 61ed fe32
00000360: 8243 b530 5fe9 2430 cdf5 e12f 918f fe30
00000370: 5722 e830 5416 5531 0b3a 7c31 daae 4d31
00000380: 4ecd d231 83f1 9c30 32d3 b332 87f4 5a32
00000390: 9266 3632 f811 a432 d3bb c432 5b09 1533
000003a0: 6753 ce31 7484 1e31 ce56 6931 79d9 8531
000003b0: acb0 9a31 5c6d c730 30c3 0730 29d5 0232
000003c0: cff8 e830 4b6f 7530 4419 c02f a12e 8a31
000003d0: d0b9 9c31 a99f 2e32 c644 4332 e279 b931
000003e0: 7458 1c32 58ce ee30 8c18 8532 9d96 cc31
000003f0: f6de fe32 b643 292f e9cb c930 eb4f a032
1.1568632e-08 7.187698e-09 8.342911e-08 1.0416642e-07 9.804126e-09 1.0293504e-07 1.7228197e-07 9.902577e-08
3.0952554e-09 2.9296896e-09 1.1537206e-08 1.0982151e-08 3.5636563e-09 3.6341625e-08 3.82574e-08 1.1752129e-08
7.1328955e-08 1.1151211e-08 2.1991967e-07 3.4310617e-07 1.5752244e-08 2.337449e-07 4.471811e-07 3.0865547e-07
8.220474e-07 1.9313119e-07 1.6175035e-07 8.0511853e-07 1.3861029e-07 2.4064395e-08 1.2894e-07 6.3943645e-07
3.3631032e-08 1.3224167e-09 1.8167208e-08 3.3692004e-08 5.621238e-09 1.9218886e-08 1.8364097e-09 1.667097e-08
8.733961e-08 6.860613e-09 2.733949e-08 9.092389e-08 5.7161196e-09 1.664815e-08 3.4706436e-09 3.9263917e-08
1.5763571e-07 3.014582e-08 8.72394e-08 2.0034864e-07 1.1353882e-08 1.583081e-08 6.940656e-08 2.5855718e-07
1.3353893e-08 5.2369105e-09 2.8230762e-09 2.5248799e-08 1.7878444e-08 3.493037e-08 4.7579594e-08 3.0728373e-08
1.276452e-08 6.155204e-10 6.721518e-09 1.0236857e-08 8.661554e-09 1.1574948e-08 2.6805156e-09 5.7391665e-09
8.479395e-09 1.8476243e-08 1.056909e-07 1.0521841e-07 2.722205e-08 1.2971209e-07 2.003351e-07 1.0811227e-07
7.3841178e-09 2.0661782e-08 2.320375e-07 1.3144579e-07 5.9677234e-08 2.032363e-07 2.847402e-07 2.683461e-07
2.6280906e-09 1.10488924e-10 1.4841198e-09 1.589134e-09 2.4627371e-09 8.711493e-09 4.727515e-09 2.0740132e-09
3.0714716e-08 6.323146e-09 1.2012215e-08 2.449512e-08 8.659914e-09 1.1327194e-08 1.0005264e-09 1.8154628e-08
1.975853e-08 2.2138916e-08 1.6183232e-07 1.7303036e-07 3.349579e-08 1.8190876e-07 2.9225976e-07 1.6922124e-07
2.9699082e-08 4.044436e-09 1.9183243e-08 6.372026e-08 6.380982e-08 2.8176896e-07 2.5497303e-07 7.9342826e-08
4.3088555e-09 5.2871857e-10 1.5244352e-08 1.5024245e-08 6.836518e-09 3.2888593e-08 3.9282522e-08 3.165103e-08
3.2092622e-08 2.3198519e-08 9.265101e-08 9.058343e-08 3.4969776e-08 1.1265576e-07 1.4355294e-07 8.31453e-08
1.0961537e-09 4.100162e-10 3.2989231e-09 8.984245e-10 4.7144626e-09 3.3601819e-10 6.528291e-10 3.4953056e-09
3.5493788e-09 2.0708468e-10 3.164925e-09 2.9594789e-09 3.6071557e-09 2.813692e-09 5.941697e-10 3.1837912e-09
4.8872004e-09 6.0191954e-09 4.9225374e-08 2.7969666e-08 2.7376137e-08 3.891957e-08 5.5756363e-08 5.389932e-08
6.7659043e-09 2.0844372e-10 8.819071e-09 1.9095653e-08 8.974152e-10 2.4021496e-08 3.1966884e-08 1.9884554e-08
2.2097018e-09 2.2282275e-10 5.9650103e-09 4.591973e-09 3.554811e-09 1.46434385e-08 1.4537854e-08 1.32486795e-08
6.002818e-08 1.0141346e-07 3.7236006e-07 3.6252456e-07 9.027699e-08 7.200438e-07 9.1467484e-07 3.8932694e-07
1.3432564e-08 2.0272084e-09 7.2117663e-09 2.668509e-08 4.139839e-09 1.4775803e-08 2.949739e-08 2.6633858e-08
3.894594e-09 3.381298e-10 5.1120064e-09 5.1586326e-09 1.6720675e-09 6.0211156e-09 5.216693e-09 1.0210326e-08
1.5194761e-09 3.8792822e-09 2.414624e-08 1.78853e-08 6.681677e-09 2.6611822e-08 3.80334e-08 2.4275664e-08
2.134523e-08 4.4047375e-09 1.0285967e-08 2.6359341e-08 9.248723e-09 3.2795537e-09 1.1122822e-08 2.967744e-08
1.318867e-09 5.999449e-10 4.1101914e-10 1.8521736e-09 1.6889982e-09 3.1008272e-09 3.670382e-09 2.9930818e-09
6.135145e-09 1.1419136e-09 2.0934383e-08 1.2744869e-08 1.0617116e-08 1.9100284e-08 2.2902816e-08 3.4700275e-08
6.004871e-09 2.3067317e-09 3.3955305e-09 3.8955332e-09 4.502075e-09 1.4510237e-09 4.939009e-10 7.615463e-09
1.6950937e-09 8.928864e-10 3.494255e-10 4.0216297e-09 4.561322e-09 1.01644355e-08 1.1366131e-08 5.398065e-09
9.100507e-09 1.7375426e-09 1.54944e-08 5.954304e-09 2.9670883e-08 1.5394516e-10 1.468263e-09 1.8662794e-08

exp_avg f4 [4, 8]
00000000: 15da 553a 46d6 bebb b2c3 063c 55a9 dc3b
00000010: 004e 573c eb12 f0bb 8fad 153b 66d8 00bc
00000020: 0138 fa3a e45d a83a 1c85 0ebb 3958 22bb
00000030: 913f 973a 3771 5a3b ec6f b9bb 26d5 2e3a
00000040: 1878 ce3b fc89 b7bb c104 6c3b 9036 0e38
00000050: 1e8d ac3a bf66 c3bb b984 213c 26d1 e73b
00000060: 64df 2cbb 9b9f 2a3b 2089 0fbb 8d1f 813b
00000070: 559b 27bb 7863 82bb 82ba 9e3b 4c95 063a
0.0008157802 -0.005823883 0.008225368 0.006734053 0.013141155 -0.007326474 0.0022839045 -0.007864093
0.0019090177 0.0012845364 -0.002174682 -0.0024771823 0.001153933 0.0033331641 -0.005659094 0.0006669335
0.0063009374 -0.005601166 0.0036013576 3.3906254e-05 0.0013164615 -0.005963176 0.009858304 0.007074493
-0.0026378268 0.0026035074 -0.0021901801 0.0039405287 -0.0025574763 -0.0039791428 0.004844011 0.00051339413

exp_avg_sq f4 [4, 8]
00000000: 46e4 1236 5ff5 4637 d527 7537 de81 7437
00000010: 9616 1938 d727 7837 db8e 1537 a8bb 3c37
00000020: b811 1936 3285 dc35 ce52 0336 e7a2 3036
00000030: ab14 0236 f04e 4536 e49c bd36 7e51 1e36
00000040: f3e5 9837 40db ae37 39ef 9c37 719c 3137
00000050: 67ba 1837 529c ae37 98f7 a837 58a5 a637
00000060: f3b8 3436 7b0c dd35 bccf 0036 4422 2037
00000070: ef61 3b36 930c 0b37 3904 3237 8255 f135
2.1888568e-06 1.185885e-05 1.4612412e-05 1.457377e-05 3.6499077e-05 1.4791228e-05 8.914353e-06 1.1249365e-05
2.280909e-06 1.6430042e-06 1.956872e-06 2.6320865e-06 1.938354e-06 2.9401235e-06 5.6509034e-06 2.359127e-06
1.822689e-05 2.0844513e-05 1.8708046e-05 1.05864465e-05 9.103306e-06 2.0815209e-05 2.0142455e-05 1.9865736e-05
2.6929745e-06 1.6469415e-06 1.9194404e-06 9.544721e-06 2.7922176e-06 8.287973e-06 1.061061e-05 1.7980785e-06

exp_avg f4 [4, 1]
00000000: 1a98 443a 67f5 763c 0948 a4bc 3488 e33b
0.00074994715 0.015073157 -0.02005388 0.006943727

exp_avg_sq f4 [4, 1]
00000000: a3d8 3a35 89cf d337 f1f1 6338 92a1 ab36
6.960565e-07 2.5249801e-05 5.4346343e-05 5.1150064e-06

exp_avg f4 [4]
00000000: e1d1 8abb 430b bebc baa1 243d 6f6b 5bbc
-0.0042364453 -0.02319873 0.040193297 -0.013392313

exp_avg_sq f4 [4]
00000000: 4a8c 2d36 6038 7d38 2db6 e939 b71e d037
2.5860668e-06 6.0372404e-05 0.00044576955 2.4809835e-05

exp_avg f4 [4]
00000000: e0d1 8abb 430b bebc baa1 243d 6e6b 5bbc
-0.004236445 -0.02319873 0.040193297 -0.013392312

exp_avg_sq f4 [4]
00000000: 4b8c 2d36 6238 7d38 2cb6 e939 b71e d037
2.586067e-06 6.037241e-05 0.00044576952 2.4809835e-05

embedding.weight f4 [5000, 8]
00000000: 3ce2 98be c1e9 50be 9d40 d03e d871 73bf
00000010: 96df 00be 4974 bcbf 4d0a 23bf 2996 713f
00000020: 308b 00bf 4201 aebf d521 383e 5a1a 213f
00000030: 3a90 883f 1487 c1bc 637e ffbf a17f 9e3f
00000040: f942 97bf 77d6 a63c f71c 19bf c1c7 4bbf
00000050: 2dcc b5be 84f7 dfbf 7148 2b3f cbe8 db3f
00000060: 9356 963e 34fb 9bbd ada9 c5be 9182 ca3f
00000070: 5a6d a23f 5df2 cfbe ca54 fc3c 7f4f 88bf
00000080: 2a30 aebe 7e3c 343e 9e1c b93f 864b 7a3f
00000090: 569b 68be 6681 acbf 6b41 2f3f 1620 8ebf
000000a0: 9707 d2be 07ce 163f ca07 1740 344d 5cbf
000000b0: c27d 243f 21b3 9abe 36fd 1c40 5550 6abf
000000c0: 7ba4 7e3f a127 c03d 6ce4 a93f e3e9 d4bd
000000d0: 520e d8be 719c 62bf be5a f43f bdd6 b3be
000000e0: 9191 853f 15d7 873f f34d d23e 3f4b 1bbe
000000f0: 72dc 30c0 f373 243f e560 49bc fba4 ed3d
00000100: 1dcb 80be 268d c5be d639 bcbe 509a 8cbf
00000110: a108 dd3d e3d6 c43f 470a 36bf 3ff2 df3e
00000120: cfea 763f 0236 8b3e f93c 883f 95d2 eabf
00000130: 2dd9 743f 866b 5bbe ade1 84be 2544 bfbf
00000140: 526b b13f bd7d b73e a70d d83f 4985 cd3e
00000150: df68 95bf e13d 8cbe 0896 4dbf c880 cf3f
00000160: 0b0d 57bf 796d 203f 6cbe 4abf 1c45 fcbe
00000170: 7d43 773f c6d6 88bf acac b8bf 9e58 763f
00000180: 7c57 5a3f 3d6d 06bf 5639 b13f 3050 e5be
00000190: 0d46 d83f 9cd6 b7be 96d5 f13e 687c 3cbf
000001a0: 13d3 403f 164e de3d c55d 213f e2f5 51be
000001b0: a168 203e d3c0 253f 094e 2e3f fcaa ea3e
000001c0: 0dcc 2fbf 0c92 0e3f b0d7 eabf 3276 2c3f
000001d0: ac49 bdbf b067 1c40 e28c 2040 33fc b33d
000001e0: c668 ab3d cd9a 2f3f b8b2 91be 01b9 d5bf
000001f0: 9fd9 4a3e 4c89 25bf 40b3 0ebf cb85 40bf
00000200: a363 853e 5a2b 85bf 000d ae3f a087 563e
00000210: 8f1b e9bf 8542 743d 54b0 37bf 5357 88bf
00000220: bede 753f 58f5 a7bf 3155 f5bd d121 5bc0
00000230: 3d0b b43f 8448 e5bf e2ea 803f b552 f13f
00000240: cc44 c93e 500c acbd 8c07 073f 5ba2 e93e
00000250: 60a8 42bf 8142 f63f f8b9 cabf e0d5 b23f
00000260: 26b0 c13f fb53 46bf e621 7cbf 9aed 873f
00000270: b6ee 323f 6029 bebf 2e9f 07c0 2b25 9ebe
00000280: 5741 d1bf 8e64 0a3e 21e8 81bf 985b 4b3e
00000290: 8e34 1fbf 93cb 5a3f d4fc b33e 53f5 04bf
000002a0: ea1e ef3e a726 e33e 1704 d3bf a22e 87bd
000002b0: ac81 3e3f 3584 57be b640 59bf ebb1 f8be
000002c0: 6fd9 7cbd 5864 4c3f fc3a 753e b548 84be
000002d0: 4a27 54be 4632 a73f 54a2 d73f da59 223e
000002e0: 871a ae3f 23b7 253f 5a2c d6bf 232a 71bd
000002f0: 1518 8bbf cb5f 773f 85b9 1340 36f9 4c3f
00000300: 97d7 71bf 5545 6c3f 47dd 47bf 13d4 9dbe
00000310: 77b1 403f 2699 bc3d 4821 4bbf ea55 3b3f
00000320: e0bb b2bf 4b39 73bf d509 9abf 8c47 cebe
00000330: 4420 cb3f 562a 96bf ca6e 4ebf 9cd4 523e
00000340: 78f6 0740 c3ed 10bf 24bb cb3f e213 7f3f
00000350: 6ba6 163f 9494 bbbf ba16 493f dfc9 963e
00000360: ceff ba3e aae2 ac3f a3ae b2bf 2be9 18bf
00000370: 4074 b3bf b569 1b3f 2c1b 52bf 6068 503e
00000380: 5d48 2d3f c9ac 883f f0fd 3fbc 9d0f 5bbf
00000390: ee05 3b3e 0769 873e 3f3c 12bf cadc a4bf
000003a0: 5af4 ea3e 3460 9abf 7fd6 423e e32b 14bf
000003b0: 53f7 9b3f 354a f6be 0137 9a3f 8e5d 1ebf
000003c0: 1149 1f3f f6d5 b33f 311a 09c0 fad7 473f
000003d0: b92d 07c0 7e6c ed3e 2f3e 8e3e e188 8abf
000003e0: 24b3 203f 7af9 56bf 3e23 903d e14b 4dc0
000003f0: 1daa 90be 82de 0ebf dd0c 883e b0fb 0c3f
-0.29860103 -0.2040167 0.40674296 -0.95095587 -0.12585291 -1.4722987 -0.6368759 0.9436975
-0.50212383 -1.3594134 0.17981656 0.62930834 1.0669014 -0.02362398 -1.9960445 1.2382699
-1.1817313 0.020365937 -0.5980982 -0.79601675 -0.35507336 -1.7497411 0.6690741 1.7180418
0.29362926 -0.076162726 -0.38606015 1.5821096 1.2689621 -0.40614596 0.03080215 -1.064926
-0.3402112 0.17601201 1.4461858 0.9777149 -0.22715506 -1.3476989 0.68459195 -1.1103542
-0.41021416 0.5890812 2.3598504 -0.860553 0.6425439 -0.3021479 2.4529548 -0.91528827
0.9946973 0.093825586 1.3272834 -0.10396173 -0.42198426 -0.8851996 1.9090192 -0.3512477
1.0435048 1.0612513 0.41075096 -0.15165423 -2.763455 0.64239424 -0.012291168 0.11603733
-0.25154963 -0.3858425 -0.36762875 -1.0984592 0.107926615 1.5378078 -0.7110943 0.43739507
0.9645204 0.27189642 1.0643607 -1.8345515 0.95643884 -0.21427736 -0.25953427 -1.4942671
1.3860877 0.35838118 1.6879166 0.4014075 -1.1672629 -0.2739096 -0.80307055 1.6211176
-0.84004277 0.6266704 -0.7919681 -0.49271476 0.96587354 -1.0690544 -1.4427695 0.9622897
0.8528974 -0.52510434 1.3845623 -0.4478774 1.6896378 -0.3590592 0.47233266 -0.7362733
0.75322074 0.108547375 0.63033706 -0.20503953 0.15664913 0.6474735 0.6808782 0.45833576
-0.6867073 0.556916 -1.8347073 0.6736785 -1.4788108 2.4438286 2.5085988 0.087883376
0.08369593 0.6859558 -0.28456664 -1.6697084 0.19809578 -0.64662623 -0.55742264 -0.7520415
0.2605258 -1.0403855 1.3597717 0.20950174 -1.8211535 0.05963375 -0.7175343 -1.0651649
0.96043 -1.3121748 -0.119791396 -3.423939 1.406593 -1.7912755 1.007168 1.8853365
0.393103 -0.08400786 0.5274589 0.4563168 -0.7603817 1.9239045 -1.5838003 1.397152
1.5131881 -0.77471894 -0.98489225 1.0619385 0.69895494 -1.4856377 -2.1190906 -0.30887732
-1.6348065 0.13514921 -1.0148965 0.19859159 -0.6218957 0.8546688 0.3515383 -0.51936835
0.46703273 0.44365427 -1.6485623 -0.066006914 0.74416614 -0.21046527 -0.84864366 -0.4857324
-0.0617308 0.7984061 0.23948282 -0.2583672 -0.20718113 1.3062217 1.6846414 0.15854588
1.3601846 0.6473257 -1.6732285 -0.058878075 -1.0866724 0.96630543 2.3081982 0.80067766
-0.9446959 0.9229329 -0.7807202 -0.30825862 0.7527079 0.09208898 -0.7934766 0.7317797
-1.3963585 -0.950093 -1.203425 -0.4028896 1.5869222 -1.173167 -0.806378 0.20588917
2.1244183 -0.56612796 1.5916486 0.99639714 0.58847684 -1.4654717 0.78550303 0.2945089
0.36523288 1.3506672 -1.3959545 -0.59730786 -1.4019852 0.6070817 -0.8207271 0.20352316
0.6768854 1.067773 -0.011718258 -0.855707 0.18263981 0.26447317 -0.5712318 -1.287988
0.4588955 -1.2060609 0.19027136 -0.57879466 1.2184852 -0.4810349 1.2048036 -0.61861503
0.62220865 1.4049671 -2.1422236 0.7806393 -2.1121657 0.46371835 0.27781817 -1.0823022
0.62773347 -0.8397442 0.07037972 -3.2077563 -0.28254786 -0.5580827 0.26572314 0.55071545

lstm.weight_ih_l0 f4 [4, 8]
00000000: eff8 373f f947 a6be 597b e1be 77aa 7dbf
00000010: 23a9 f03e e03d 303f 9680 73bf 0d08 823f
00000020: 36c0 61bf 3f19 263d 7573 4b3f b90b 613f
00000030: 5e9c 0f3f 2034 593f 3610 a1be 87e0 1ebf
00000040: a1aa a9be 58f0 4bbe 8fbd 303f 1d09 413f
00000050: edae ba3e 3946 05bf 162b 483f 36de 42bf
00000060: 81eb eabe 3dea 2c3e 97ae 19bf 63ef bf3e
00000070: 4427 62bf edbe 0c3d ee20 2d3e 23e2 2d3f
0.7186422 -0.32476786 -0.4403942 -0.99088234 0.4700404 0.68844414 -0.9511808 1.0158707
-0.88183916 0.04055142 0.7947305 0.8790851 0.5609797 0.8484516 -0.3145768 -0.6206135
-0.33137992 -0.19915903 0.69039243 0.7540453 0.36461583 -0.52060276 0.78190744 -0.76120317
-0.458828 0.1688623 -0.6003203 0.37487325 -0.88341165 0.03436177 0.16907093 0.6792318

lstm.weight_hh_l0 f4 [4, 1]
00000000: 76ae a3be 35eb 11bf c3c0 b9be b243 47bf
-0.3196904 -0.5699952 -0.36279878 -0.7783767

lstm.bias_ih_l0 f4 [4]
00000000: 2a54 6f3f 96e8 b9be 84e9 71bf 9515 3d3f
0.934878 -0.3631026 -0.9449694 0.73861057

lstm.bias_hh_l0 f4 [4]
00000000: 4dcc 43bc 41f3 02be d594 843d a08e 783f
-0.011950565 -0.12788107 0.064737 0.9709263
